model.pth (torch, 23699 bytes, 4 tensors)

fc1.weight f4 [20, 256]
0	0xbce2b893	-0.027675902
1	0xbdc985fe	-0.0984001
2	0x3da20c20	0.07912469
3	0xbe36f3d1	-0.17866446
4	0x3d4f0228	0.050539166
5	0xbdb45ab8	-0.08806366
6	0x3dc571b3	0.09640827
7	0x3d39126e	0.04518359
8	0x3cf25e23	0.029585904
9	0x3d3f1d13	0.046658587
10	0x3dd3981a	0.103317454
11	0x3e75e598	0.24013364
12	0xbbaafab5	-0.005217875
13	0x3cc4b564	0.024012275
14	0x3dd5bf4d	0.10436878
15	0x3d93d8be	0.07219075
16	0x3e347aaa	0.17624918
17	0x3e006a24	0.1254049
18	0x3da304da	0.0795991
19	0x3d46f5c0	0.04857421
20	0xbc715a24	-0.014730964
21	0xbddd4fdd	-0.10806248
22	0xbd7533e0	-0.059863925
23	0x3d7c3aa3	0.061579358
24	0xbf064ef9	-0.5246425
25	0xbe8e9ed0	-0.2785554
26	0x3e270e42	0.16314033
27	0x3e204054	0.15649539
28	0xbd5fb5e9	-0.054616842
29	0xbdebde97	-0.11517065
30	0xbd731903	-0.059350025
31	0xbcdcad8e	-0.026938226
32	0x3caacbbc	0.020849101
33	0xbd6417c0	-0.055686712
34	0x3d86fe51	0.06591476
35	0xbc4eb947	-0.012617416
36	0xbe4d7c93	-0.20067053
37	0x3cd18961	0.025578203
38	0x3e354d06	0.17705163
39	0x3e211f0c	0.157345
40	0x3e03477a	0.12820235
41	0x3c070a2b	0.00824217
42	0xbda69e85	-0.08135704
43	0xbe7c7f23	-0.24657874
44	0xbe415164	-0.18878704
45	0xbe3b9b36	-0.18320927
46	0x3ebb81a1	0.36622337
47	0xbe51c644	-0.20485789
48	0xbe8cdb62	-0.27511126
49	0xbeba18a0	-0.36346912
50	0xbe19d69f	-0.15023278
51	0x3d06e7f2	0.032936044
52	0x3e88860c	0.2666477
53	0xbea5492e	-0.32282394
54	0xbdb58a5a	-0.08864279
55	0x3f035bb1	0.51311785
56	0xbca048cd	-0.019565964
57	0xbd3db944	-0.04631926
58	0xbdefda22	-0.117115274
59	0x3e49f0b9	0.19720735
60	0x3e036589	0.12831701
61	0xbd1f3ea7	-0.03887811
62	0xbf16c15c	-0.58888793
63	0xbddaafb0	-0.10678041
64	0x3df466cd	0.1193367
65	0xbe60433e	-0.21900651
66	0x3e55eeed	0.20891924
67	0x3e97336f	0.29531428
68	0x3d4da8aa	0.05020968
69	0xbe1c032e	-0.15235588
70	0xbeb32f58	-0.34997058
71	0xbeaeece5	-0.3416511
72	0xbe7424f8	-0.23842227
73	0xbd149d4c	-0.036282822
74	0x3e7194eb	0.23591964
75	0xbe8282e2	-0.2549048
76	0xbe2f3ef8	-0.17113864
77	0xbe8b1c1b	-0.2716988
78	0x3d867085	0.0656443
79	0x3e142399	0.14466704
80	0xbdd02542	-0.10163356
81	0xbd1cd7cf	-0.03829175
82	0xbe51186a	-0.2041947
83	0xbabdf83f	-0.0014493539
84	0xbdd26423	-0.10273006
85	0xbd9b8318	-0.075933635
86	0x3e16ce49	0.14727129
87	0x3d4858ef	0.04891294
88	0xbef9e780	-0.48809433
89	0x3d9ad987	0.07561021
90	0xbddc351a	-0.10752316
91	0x3e9e8743	0.30962572
92	0xbd96d52a	-0.073648766
93	0x3e07c551	0.13258864
94	0xbe81727c	-0.25282657
95	0xbe345cc2	-0.1761351
96	0x3d4e978c	0.050437495
97	0xbdaf97ff	-0.08573913
98	0x3e2fb6d6	0.1715959
99	0x3e886890	0.26642275
100	0x3e1ba507	0.15199672
101	0x3d7a5469	0.061115656
102	0xbd1115e1	-0.035421256
103	0xbd4f996e	-0.05068343
104	0xbe58f097	-0.21185528
105	0x3db43874	0.0879983
106	0x3de33ca0	0.11095548
107	0xbe81699e	-0.25275892
108	0xbe72326e	-0.2365205
109	0x3dcfccfa	0.10146518
110	0xbeab1157	-0.33411667
111	0x3dfb80ba	0.12280412
112	0x3e9cc590	0.30619478
113	0x3dddc6c2	0.10828926
114	0x3e948309	0.29006222
115	0xbed03558	-0.40665698
116	0x3ebc2222	0.3674479
117	0xbd80e2ec	-0.06293282
118	0xbdd00b7a	-0.10158439
119	0xbf24e80e	-0.6441659
120	0x3e2ff68f	0.17183898
121	0xbbd63219	-0.006536734
122	0x3eae7887	0.3407633
123	0xbe3df515	-0.18550523
124	0xbe796e65	-0.24358518
125	0xbed6f705	-0.41985336
126	0xbdf152cf	-0.117833726
127	0xbe3957c5	-0.18099888
128	0xbe85fbc8	-0.26168656
129	0x3db117f0	0.08647144
130	0x3e05c975	0.13065131
131	0xbdb5a77c	-0.08869836
132	0xbd53b1a0	-0.05168307
133	0x3d8c9702	0.0686474
134	0xbe4418a9	-0.19150032
135	0xbd8e61f8	-0.0695228
136	0xbe4cfe70	-0.20018935
137	0xbd949499	-0.07254905
138	0x3e74ee11	0.2391894
139	0x3dc20a0f	0.09474575
140	0xbd9b7641	-0.075909145
141	0xbe027730	-0.12740779
142	0xbe8704ad	-0.26370755
143	0x3eee7b7e	0.46578592
144	0xbe3b2c86	-0.18278703
145	0x3e64bf2e	0.22338554
146	0xbe32c87a	-0.17459288
147	0xbe460c87	-0.19340716
148	0xbe6a560f	-0.22884391
149	0x3dbbf52a	0.09177621
150	0x3da44b99	0.080222316
151	0x3ea4ca2f	0.32185504
152	0xbe92a65b	-0.28642544
153	0x3e9696d3	0.29411945
154	0xbe3b5ef7	-0.18297945
155	0x3ea6603d	0.324953
156	0xbd2569d5	-0.040384132
157	0x3e8d9046	0.27649134
158	0xba9cb391	-0.001195537
159	0x3e9d85d3	0.30766162
160	0xbb9fdc3a	-0.004878548
161	0x3e69cedc	0.22832817
162	0x3e8b745f	0.27237222
163	0xbe8310ce	-0.25598758
164	0x3dbef979	0.09324927
165	0xbf0929a6	-0.53579175
166	0x3d433c91	0.047665183
167	0xbe423679	-0.18966092
168	0xbef68790	-0.481503
169	0x3ea5a276	0.3235051
170	0x3e2c4e3b	0.16826718
171	0xbe21efba	-0.15814105
172	0xbea19847	-0.3156149
173	0xbdb1b18d	-0.08676443
174	0xbdd0ad8c	-0.101893514
175	0x3c7fa2d7	0.015602789
176	0xbc3e415b	-0.011612262
177	0xbe881a81	-0.2658272
178	0xbed1b195	-0.40955797
179	0xbde860a1	-0.113465555
180	0xbe4290cc	-0.19000548
181	0x3f0468ff	0.5172271
182	0x3e000d73	0.1250513
183	0x3d4062d3	0.046969246
184	0x3e87ee37	0.2654893
185	0xbe838022	-0.25683695
186	0x3dd3b0ff	0.10336494
187	0x3e760c43	0.24028115
188	0xbe424f15	-0.1897548
189	0x3ef8f12e	0.48621505
190	0x3ebdf572	0.37101322
191	0xbda1dfb3	-0.07903995
192	0xbce88d73	-0.02838776
193	0xbddea7c2	-0.10871841
194	0xbe31adb4	-0.17351419
195	0xbe027c75	-0.12742789
196	0xbd01b0cf	-0.03166276
197	0x3bb28fc9	0.0054492694
198	0xbe8b18be	-0.27167314
199	0x3e8f32b0	0.2796836
200	0x3cc3ce10	0.02390197
201	0xbe28ce0e	-0.16484854
202	0xbe33a4d0	-0.1754334
203	0xbdd889c0	-0.10573149
204	0x3dfdeb63	0.12398412
205	0xbdd6c847	-0.104874186
206	0x3bc759b2	0.0060836906
207	0xbe622689	-0.22085012
208	0xbdcb2588	-0.09919268
209	0xbe86be20	-0.2631693
210	0x3e93ed34	0.2889191
211	0xbecc01f0	-0.39845228
212	0x3dc08c07	0.09401708
213	0x3ccc56fd	0.024943823
214	0x3e1b1862	0.1514602
215	0xbd0e2539	-0.034703467
216	0xbe0fc894	-0.14041358
217	0x3e0b2679	0.13588895
218	0x3e955d47	0.29172727
219	0xbd9e38c4	-0.07725671
220	0xbec5e044	-0.38647664
221	0xbe98f626	-0.29875296
222	0xbedb2ddd	-0.42808428
223	0xbe69aa6f	-0.22818922
224	0x3be1f1ac	0.0068952646
225	0xbe3d3f63	-0.18481211
226	0x3e0ff8b1	0.14059712
227	0x3e76b1b1	0.24091221
228	0xbe48add5	-0.19597562
229	0x3d937442	0.07199909
230	0xbdbf4777	-0.09339803
231	0x3d94d19f	0.072665446
232	0x3e84fb76	0.259731
233	0x3d6c639b	0.05771218
234	0xbca816a0	-0.020518601
235	0x3d8640f6	0.06555359
236	0x3d27326b	0.040819567
237	0x3ea119ba	0.3146494
238	0xbe56218c	-0.20911235
239	0x3f21a1c8	0.63137484
240	0x3eae7afd	0.34078208
241	0x3d5d9350	0.054095566
242	0xbe252eb3	-0.16131096
243	0xbd52a053	-0.05142243
244	0xbd188ebe	-0.037245505
245	0xbec095b6	-0.3761422
246	0x3e41fa70	0.1894319
247	0x3e59bfe8	0.21264613
248	0xbdd9d395	-0.10636059
249	0xbdcdc158	-0.10046643
250	0x3e560ea7	0.20904027
251	0x3e3b7e43	0.18309884
252	0x3dc5ef8f	0.09664833
253	0xbec26b17	-0.37972328
254	0xbe91b1d8	-0.28455997
255	0x3ebe9850	0.3722558

fc1.bias f4 [20]
0	0x3d98bd6e	0.07458006
1	0xbe86350b	-0.26212344
2	0xbebae395	-0.36501756
3	0x3dfe423d	0.12414978
4	0x3eb18b98	0.34676814
5	0x3d31b19a	0.043382265
6	0xbe0f84da	-0.14015523
7	0x3dab512a	0.0836509
8	0x3dfb6882	0.12275793
9	0xbe6508e8	-0.22366679
10	0x3db4364f	0.08799421
11	0xbdc0577c	-0.09391686
12	0x3e3875e6	0.18013725
13	0xbd7fcb4b	-0.062449735
14	0xbd15dcae	-0.03658741
15	0xbbb4a060	-0.0055122823
16	0xbdb608fb	-0.08888432
17	0x3e46274d	0.1935093
18	0x3eb020fb	0.34400162
19	0xbdb7ff92	-0.08984293

fc2.weight f4 [20, 20]
0	0x3f00cb0e	0.50309837
1	0xbf225adf	-0.6341991
2	0xbe8c546d	-0.27408162
3	0x3f523973	0.8211891
4	0xbf9b7556	-1.2145183
5	0xbf1b60b7	-0.6069445
6	0xbf01e573	-0.50740737
7	0x3f5f3d3a	0.872028
8	0xbf815384	-1.0103612
9	0xbf82fb94	-1.0233026
10	0xbdf2d74d	-0.118574716
11	0x3f45c1bc	0.7724874
12	0x3f0b26c9	0.54356056
13	0xbf5950cc	-0.8488891
14	0x3f62b395	0.8855527
15	0xbf6a4c27	-0.9152245
16	0xbf88a560	-1.0675468
17	0xbf83d733	-1.0300049
18	0x3ed97ead	0.42479458
19	0xbeb34cd5	-0.35019556
20	0x3f1ffe53	0.6249744
21	0x3f34c1fa	0.70608485
22	0xbf4688bf	-0.7755241
23	0x3efb6d80	0.4910698
24	0x3f18fac4	0.5975764
25	0x3f084ebf	0.53245157
26	0xbf16fd19	-0.58979946
27	0x3f5fe744	0.8746226
28	0x3f257d97	0.6464476
29	0xbed11de7	-0.40843126
30	0xbf3766ac	-0.7164104
31	0x3f1fd8f0	0.62440395
32	0x3f5546fd	0.83311445
33	0xbf26434a	-0.64946425
34	0xbf32d9f1	-0.698638
35	0xbcd2f72a	-0.025752623
36	0x3f71be32	0.9443084
37	0x3f148011	0.58007914
38	0xbf3e040f	-0.7422494
39	0xbf46ab37	-0.77605003
40	0xbf55413b	-0.8330266
41	0x3f5f51e6	0.8723434
42	0x3d26c844	0.040718332
43	0x3f5e64b6	0.8687242
44	0x3e8e6fa7	0.2781956
45	0xbf8a0a8d	-1.078447
46	0xbf0a7a7f	-0.54093164
47	0xbf6f3b62	-0.93449986
48	0x3f53fac6	0.82804525
49	0xbf447676	-0.7674326
50	0x3f83ee56	1.0307109
51	0xbefd0ad5	-0.49422327
52	0x3dcf69ad	0.10127578
53	0xbe1a49fa	-0.15067282
54	0xbf92ef8a	-1.1479352
55	0xbf6324fa	-0.88728297
56	0xbf8cac66	-1.0990112
57	0xbf2fa11a	-0.68605196
58	0x3f2fd7f9	0.68688923
59	0x3f738369	0.9512239
60	0xbf479c97	-0.7797331
61	0x3f8ade89	1.0849162
62	0x3f538092	0.8261806
63	0x3de29ff3	0.11065664
64	0xbe70df8e	-0.2352278
65	0x3f585cdf	0.8451671
66	0xbf902816	-1.1262233
67	0xbf3da395	-0.7407773
68	0xbf5f6df7	-0.8727717
69	0x3f46ca6e	0.77652633
70	0xbf4d902e	-0.80298126
71	0xbefc576b	-0.49285445
72	0x3eed424c	0.46339643
73	0x3e12b547	0.14326964
74	0xbe8761d7	-0.26441833
75	0x3f136b8b	0.5758597
76	0xbee26f77	-0.44225666
77	0xbf6d8ba5	-0.92791206
78	0x3f4c7ffa	0.79882777
79	0x3eea897c	0.45808017
80	0xbe356324	-0.177136
81	0xbf2f0bd0	-0.683774
82	0xbf116cb9	-0.5680652
83	0x3efb9475	0.491367
84	0x3fa1be72	1.2636244
85	0xbf311d60	-0.6918545
86	0x3efd2b64	0.49447167
87	0x3f7c0399	0.9844299
88	0x3f5d6d35	0.8649476
89	0xbf1b2afd	-0.6061247
90	0x3f9a4d79	1.2054893
91	0x3f76ac36	0.96356523
92	0xbf5adecf	-0.8549623
93	0xbf921674	-1.1413102
94	0x3ebedefd	0.37279502
95	0xbf282d83	-0.65694445
96	0x3e2b5bc0	0.16734219
97	0xbe009600	-0.1255722
98	0x3f90bd03	1.1307682
99	0xbf5a0561	-0.8516446
100	0x3f14293a	0.57875407
101	0xbf26ad4c	-0.6510818
102	0xbf287f10	-0.6581888
103	0xbf52b3f2	-0.82305825
104	0x3e861d6e	0.26194328
105	0x3f185476	0.5950388
106	0xbf500a11	-0.8126536
107	0xbf614e0f	-0.8800973
108	0x3f52fb10	0.8241434
109	0xbed06be8	-0.40707326
110	0xbf7b1d46	-0.9809154
111	0x3f668379	0.9004436
112	0xbf5a674a	-0.85313857
113	0xbf571a4b	-0.84024495
114	0x3f46a7d4	0.77599835
115	0x3f934047	1.1503991
116	0xbf5e47d0	-0.8682833
117	0x3dded10b	0.108797155
118	0x3f0b2f34	0.543689
119	0xbef89606	-0.4855196
120	0x3f764981	0.9620591
121	0xbf671e39	-0.9028049
122	0xbf78beb2	-0.9716598
123	0xbf762502	-0.9615022
124	0x3f58bf33	0.84666747
125	0xbf6b2a37	-0.9186129
126	0x3d6e0677	0.058111634
127	0x3d5dc3b1	0.054141704
128	0xbf975bd1	-1.1824895
129	0xbf0f00fe	-0.5586089
130	0x3f55f6bf	0.8357963
131	0xbf71f932	-0.94520867
132	0x3f451b6a	0.76994956
133	0x3f5abbd4	0.8544285
134	0x3f313bfb	0.6923215
135	0x3f53e613	0.8277294
136	0x3e5447f2	0.2073057
137	0x3e88a9e6	0.26692122
138	0x3eedd914	0.4645468
139	0xbf878148	-1.0586329
140	0xbf3d0634	-0.7383759
141	0xbe849ab8	-0.2589929
142	0xbf233d64	-0.6376555
143	0x3f47d1b4	0.78054357
144	0xbf466618	-0.7749953
145	0x3f8430bf	1.0327376
146	0x3ed7de77	0.42161915
147	0x3e96fd78	0.29490256
148	0x3f4d9f4e	0.80321205
149	0x3f57832b	0.8418452
150	0x3f28ab4e	0.6588639
151	0x3f52d0a5	0.82349616
152	0xbf46fd47	-0.7773022
153	0x3f9ff07a	1.2495263
154	0x3f2d9217	0.6780104
155	0xbf3ca158	-0.7368369
156	0x3f0a4b5e	0.5402125
157	0xbf2fede9	-0.687224
158	0xbf59b21d	-0.85037404
159	0xbf46e38c	-0.7769096
160	0xbf04014c	-0.5156448
161	0xbee38250	-0.44435358
162	0xbedfdfb9	-0.43725374
163	0xbeb4545a	-0.35220605
164	0xbf255481	-0.6458207
165	0xbf3218c1	-0.6956902
166	0x3f2e9560	0.6819668
167	0x3f07df23	0.53074855
168	0xbf805087	-1.0024575
169	0x3f4f234c	0.80913234
170	0x3f298fab	0.66234845
171	0x3f054fc2	0.52074826
172	0xbf4623bd	-0.7739828
173	0xbf9915c8	-1.1959772
174	0x3e075c1c	0.1321873
175	0xbf0cecd9	-0.550489
176	0x3f03d2fa	0.514938
177	0x3f556118	0.8335128
178	0xbf389be1	-0.7211285
179	0x3f4d438d	0.801812
180	0x3f6dea94	0.9293606
181	0x3f2f7953	0.685445
182	0x3f43f6d1	0.76548487
183	0xbf464987	-0.77455944
184	0xbf7e588f	-0.9935388
185	0x3f77a187	0.96730846
186	0x3f260602	0.6485292
187	0xbf2943c8	-0.6611905
188	0x3e37642f	0.17909311
189	0xbf249c8e	-0.64301383
190	0x3f236619	0.63827664
191	0xbf188db7	-0.5959124
192	0x3f3cea00	0.73794556
193	0x3efc530c	0.4928211
194	0x3f5f93bc	0.873348
195	0x3e2dbc22	0.16966298
196	0x3f244b0f	0.6417703
197	0x3f8f3d95	1.1190668
198	0x3f0c9adb	0.5492379
199	0x3f879e90	1.0595264
200	0xbf081f77	-0.5317301
201	0x3f230525	0.63679725
202	0x3f292209	0.6606756
203	0x3f062871	0.5240546
204	0x3f61b17b	0.8816144
205	0x3f397121	0.72438246
206	0x3f69712f	0.9118833
207	0x3f63093f	0.88685983
208	0x3f00d201	0.5032044
209	0x3f36753e	0.7127265
210	0xbf508d0c	-0.8146522
211	0xbf500fc5	-0.8127406
212	0x3f03bbb4	0.5145829
213	0x3f2f1e03	0.6840517
214	0xbeb73066	-0.35779113
215	0x3f19fc33	0.6015045
216	0xbf3c6675	-0.7359384
217	0x3f6f81c8	0.93557405
218	0xbf789bf0	-0.9711294
219	0x3ea4c571	0.32181886
220	0xbf6a1306	-0.9143528
221	0x3f85d501	1.0455629
222	0x3e99888d	0.29986992
223	0x3f89219f	1.0713385
224	0x3f4c9c52	0.79926026
225	0x3ebc8983	0.36823663
226	0x3f452289	0.7700582
227	0xbe741c5f	-0.23838948
228	0xbe0874d4	-0.13325816
229	0xbef225bf	-0.47294423
230	0x3f13b9df	0.5770549
231	0xbf299d00	-0.6625519
232	0xbf76a85c	-0.96350646
233	0x3f47211a	0.77784884
234	0x3f254f83	0.6457445
235	0x3f901615	1.1256739
236	0x3f942ac1	1.1575547
237	0xbf2eeb1e	-0.6832751
238	0x3f10d527	0.56575245
239	0xbf5a1c0f	-0.85199064
240	0xbf1b1d5c	-0.60591674
241	0xbf74b0f3	-0.95582503
242	0xbf463643	-0.77426547
243	0xbf486b00	-0.7828827
244	0xbf5a64c2	-0.85309994
245	0x3ecf4ec9	0.40489796
246	0x3f815537	1.010413
247	0x3f4e42cb	0.8057067
248	0xbf3a823d	-0.7285498
249	0x3f38b976	0.7215799
250	0xbf1132fe	-0.5671843
251	0xbf0f66ef	-0.5601644
252	0x3f0256ab	0.50913495
253	0x3ed31881	0.41229632
254	0xbf03770b	-0.5135352
255	0x3dd74bd2	0.105125085

fc2.bias f4 [20]
0	0xbe2e000a	-0.16992202
1	0x3e149215	0.14508851
2	0x3d86882c	0.065689415
3	0xbe8fa9d0	-0.28059244
4	0xbde47b45	-0.11156324
5	0x3e542e7a	0.20720854
6	0xbcbbb32b	-0.022912582
7	0x3e788ab6	0.24271664
8	0xbd85683f	-0.06514024
9	0xbe966694	-0.29375136
10	0x3d986ccd	0.07442627
11	0x3d64cda6	0.055860184
12	0xbe61a3fa	-0.22035208
13	0x3d2b518e	0.041825823
14	0x3e6a4a7f	0.2287998
15	0xbdd51c09	-0.10405738
16	0x3d382805	0.04496004
17	0xbd92ef75	-0.07174579
18	0x3dc4eb05	0.09615139
19	0xbe40117a	-0.18756667
