model.pth (torch, 27219 bytes, 4 tensors)

fc1.weight f4 [20, 300]
00000000: 5014 0a3e 28be 7d3d 76f3 f1bd 6075 903e
00000010: 2c90 023e 54fb f4bb 1a75 5fbe dfc9 493e
00000020: 3f0e 1b3c 59b0 28be 4798 453c 99c8 cf3d
00000030: 18aa 9e3b 9fa0 cabd d9f9 da3d c61e 153e
00000040: d8ab 80bd a139 be3d 7738 ad3e 703d 703d
00000050: 97ea f4ba 0cab 76be 1012 16be 2ba8 bdbc
00000060: 322e cdbd e305 75be 35e4 b9bd 1ab1 b7bc
00000070: a077 2e3d 963a 18bd 0380 53bc 8f18 89be
00000080: b6c4 bdbe 49cd 0b3d a845 cbbc 8097 4fbe
00000090: d9ab 0f3e d0f1 293e 8385 a03e e0f5 913e
000000a0: a1ac c8be 78e8 aabd adf8 dd3d 8405 323e
000000b0: f7ff 8fbb d464 25be e9ae 343d 8e1f 53bc
000000c0: 8e87 9ebe bf5e bfbd 8b2a a6bb ffc1 c3bc
000000d0: 98bc 0e3e a734 2abe cb6f 123e 03d5 163e
000000e0: ba1a 2f3e 4002 fdbc 9045 55bd dcdd cb3d
000000f0: d32c 273d 20cd 023e 7607 163e 159b efbe
00000100: bf4f 37be 1875 a1bd b42a b2be 895f 2cbd
00000110: 9e53 2c3e 151d bd3d a64c 25be 431c 043e
00000120: ebc8 183e edb5 0b3d 938c f4bc 5364 eabe
00000130: 2e81 89be 7c2b 3a3e d33d 313e ee92 83bd
00000140: 0cf4 be3e 17e9 22be e01e 9ebc 55df 8c3e
00000150: 1b19 18bd 33ff 4cbe 22f1 b9bc 4e52 b8be
00000160: eefc 2f3e 0dbb b0be cd74 e3bd 28a3 db3d
00000170: b61b 2ebe 8284 74bd ce81 d83c d445 343e
00000180: a389 d33e 0de6 64be 699c 0c3f 32b3 a93d
00000190: aed3 b1be de5c c1be e985 02bf faa9 debd
000001a0: 5fd8 47bd c664 423e a583 5dbe 6f8b b5be
000001b0: be5f e43e c794 2a3e 5431 a3be e5b7 ecbd
000001c0: 3b39 f2be dd3d 4bbe e85d 82be 4138 26be
000001d0: 9568 ccbe ed59 a73d 3a6f 45be dcd5 23be
000001e0: 55dc 57bc f860 dcbd a816 c33e 9f68 87be
000001f0: 2ec0 ac3e b59a 143e 9c2a 823e 3310 fbbd
00000200: 081d a43d fef1 bf3d 336d c2be 4055 c6bc
00000210: 5974 883e 9e12 47be 950a c8bd c992 c53e
00000220: fcb8 e0bc b677 b8bd af6f 16be 15da da3e
00000230: 7a07 b73d 43de 12be 38c0 8f3e 53de e93d
00000240: a440 dabe 5cd1 04bd e609 583e dec2 123e
00000250: 85e5 4fbd accb 033c 7f62 f43d 9854 bfbe
00000260: 5794 2fbc 3e2f 883e 68da 723e 9dc0 e2bd
00000270: 44e9 ef3d bf6c c13e 1824 d73d fcde a4be
00000280: 510e abbd 6111 41be 93b4 03bf 65ae 223e
00000290: 4017 7a3e 8fc8 de3e dd32 09be b699 883e
000002a0: b6d9 6d3d 32c3 ad3e cd13 19be 3fc7 3f3e
000002b0: c5f7 443e 42e7 eebe aebf 7bbe d961 da3e
000002c0: a3d5 26be 824d 213f 5bd1 3c3d 40cb c93e
000002d0: 4813 3fbe 0a42 4bbe d766 593e d75a e33d
000002e0: b150 87be 2242 d8bd 56c3 afbe ad8c 513d
000002f0: c330 06be 7008 813e 20e9 efbd bb96 f9bc
00000300: 568d 9cbe ac1c b43e 34fc ff3d 0ffc a43d
00000310: 9069 d63e 637b 853e 358f 813d 6c0e dc3d
00000320: 9f44 213e 67ab 193d 03e7 e73e 327b a43d
00000330: 1303 663e 4b29 c23e 6349 b5be c492 943d
00000340: b6a9 c0bd b3ce 95be beb6 66be 37c1 1e3e
00000350: 66a0 843d 4449 063e 2aa7 4f3e 1fd0 333e
00000360: 7f4b 2e3e 1882 813d 697e 853c 3d6f 96bd
00000370: b215 afbd f400 dabd 1934 193d 10d5 19be
00000380: 4d30 603d a053 8c3e d275 3abd f256 153e
00000390: b75e a9be 3e7c f43e 8da0 b4be 5ed1 b3bd
000003a0: d176 72be a0ce 8e3e 8d44 61bd 9289 b93e
000003b0: 9578 0ebe d9b7 b63d e3e2 4abe 884d 843e
000003c0: 1f1e 063f 31f7 b63d 7d90 c03d 729b 7c3c
000003d0: 64f0 093e 19ff bd3e 5f5f bebd 5ac6 1ebe
000003e0: 9b2a 6b3e 3de4 19be 91d7 20be f0cb 633e
000003f0: bdc8 98be 6f16 f6bd 8754 0ebe 477c 9bbd
0.13484311 0.061948925 -0.118140146 0.2821455 0.1275031 -0.0074762497 -0.21822014 0.19705914
0.009463846 -0.16473521 0.0120602315 0.10145683 0.004842054 -0.09893917 0.10692186 0.1456252
-0.062827766 0.092883356 0.33832142 0.05865234 -0.0018685636 -0.24088687 -0.14655328 -0.023151478
-0.10018577 -0.23928027 -0.0907673 -0.022423316 0.042594552 -0.037165247 -0.012908938 -0.2677655
-0.3706414 0.034131322 -0.024813488 -0.20272636 0.14030398 0.1659615 0.3135186 0.285079
-0.39194205 -0.08345121 0.10838447 0.17384917 -0.004394527 -0.16151744 0.04411212 -0.012885941
-0.30962795 -0.09344243 -0.0050709895 -0.023896215 0.1393913 -0.16621648 0.14300458 0.14729695
0.17100039 -0.030884862 -0.052068293 0.09954426 0.040814232 0.12773561 0.14651284 -0.46798006
-0.17901514 -0.07883662 -0.34798205 -0.042083297 0.16828772 0.092340626 -0.1614252 0.12901406
0.14920394 0.034109045 -0.029852187 -0.45779666 -0.2685637 0.1818065 0.1730874 -0.06424509
0.37295568 -0.15909229 -0.019301832 0.2751414 -0.037133317 -0.20019226 -0.022697989 -0.36000293
0.17186329 -0.34517708 -0.11106262 0.10724479 -0.17002758 -0.05969668 0.026429083 0.17604762
0.41315946 -0.22353382 0.5492616 0.08286132 -0.3473181 -0.37766165 -0.5098558 -0.10872264
-0.048790332 0.18983755 -0.2163225 -0.35457942 0.44604295 0.16658317 -0.31873572 -0.115585126
-0.47309288 -0.19847818 -0.2546227 -0.16232397 -0.3992354 0.08171449 -0.19280711 -0.1599955
-0.01317509 -0.10760683 0.38103223 -0.26447007 0.3374037 0.14512141 0.25423133 -0.12258949
0.0801335 0.09372328 -0.37973937 -0.024210572 0.26651266 -0.19440696 -0.09767643 0.3858855
-0.027431957 -0.09007208 -0.14691041 0.42744508 0.08936973 -0.14342599 0.2807634 0.11419358
-0.42627442 -0.032426223 0.21097526 0.14332148 -0.050755996 0.008044165 0.11932849 -0.37369227
-0.010716519 0.26598543 0.23716128 -0.11071894 0.11714414 0.3777828 0.10504931 -0.32201374
-0.0835234 -0.18854286 -0.5144741 0.15886839 0.24422932 0.4351239 -0.13398309 0.26679772
0.058068953 0.33937985 -0.1494896 0.1872835 0.19235142 -0.4666081 -0.24584839 0.42652777
-0.16292433 0.6300889 0.046098094 0.3941288 -0.18659699 -0.1984941 0.21230637 0.11101311
-0.2642875 -0.10559489 -0.34328717 0.05115955 -0.13104539 0.2520175 -0.11714387 -0.030467382
-0.3057658 0.35178125 0.12499276 0.08055889 0.41877413 0.260707 0.06326143 0.10744938
0.15748833 0.037516978 0.45293435 0.0803131 0.2246211 0.3792213 -0.35407552 0.07254556
-0.0940737 -0.2925926 -0.22530648 0.15503393 0.06475906 0.13113886 0.20278612 0.1755986
0.17020987 0.063236415 0.016295629 -0.07345436 -0.0854906 -0.10644713 0.0374032 -0.15022683
0.054733563 0.2740755 -0.04552252 0.14583948 -0.33080074 0.4775104 -0.3527874 -0.08780168
-0.23678137 0.27892017 -0.054997016 0.3623777 -0.13913186 0.08921785 -0.19813113 0.25840402
0.5238971 0.08933867 0.09402559 0.01541792 0.13470608 0.37108687 -0.09295534 -0.15505353
0.22965471 -0.15028472 -0.15707232 0.22245765 -0.2984065 -0.120159976 -0.13899432 -0.075920634

fc1.bias f4 [20]
00000000: 8e8a 7cbe da17 373e dbac 5f3c 229f c2bd
00000010: 98e1 8e3e eede 69bd cef5 29be 6a95 c33c
00000020: 8561 d73b a4f9 f5bd 1405 a33c 285b 973d
00000030: 3fec 9dbb d662 0a3e 3e46 91bd 0fed fc3d
00000040: c16c 823e 79f5 333e 7a1a 253c 6f09 a4bd
-0.2466223 0.17880192 0.013652052 -0.095030084 0.2790649 -0.057097368 -0.16597673 0.023874957
0.0065729045 -0.12010506 0.019899882 0.073904335 -0.0048194225 0.13514265 -0.07093476 0.12349903
0.25473598 0.17574109 0.010077113 -0.08009612

fc2.weight f4 [20, 20]
00000000: c14b 2fbf afd4 243f 24f2 87bf 1249 85bf
00000010: 324c 863e ca21 0e3f bfce 23bd a56c 27bf
00000020: 3e21 9bbe 3107 473f 14a0 593f e37e 333f
00000030: f2c7 ab3e a6f0 6f3f f5b6 ff3e aa04 6fbf
00000040: 9096 513f c237 2a3f 697c dd3e 17bd 2abf
00000050: 1dc0 a3be 6926 363f 830c 14bf bfdc 243f
00000060: 2413 ec3e 3120 1dbf cf98 5d3f a08f cabe
00000070: c314 42bf 6d09 27bf 3ae2 3c3f eb83 563f
00000080: e776 1ebf 7dfa 3cbf 70e1 1e3f 47be 1d3f
00000090: b0c3 283f 8c6f 11bf 1a26 17bf d29f 443f
000000a0: 2b0e 25bf 7a98 94bf 9c5a 3cbf 3176 4cbf
000000b0: d356 22be 78cd 4bbe c8f5 233f f9d4 82bf
000000c0: cff7 3b3f 2304 b9be 7cf3 bebe 7f10 87bf
000000d0: a253 f03d bd74 433f 19be 6fbf 4291 3e3f
000000e0: ef74 79bf 175d 1e3f db01 083f b786 723e
000000f0: f9f5 0e3f 8522 ce3e 4424 4cbf 00b6 40bf
00000100: 582f 65bf a156 40bf ca4d 323f 4512 263f
00000110: e02e 5bbf 485c 3d3f d3d8 0fbf f4b4 c6be
00000120: e2f8 233f 2f81 dc3e d95c 9ebe 1738 3a3f
00000130: efcf 133f 6eaf b4be cbbe 2bbf 27a7 173f
00000140: 8b0a 1cbf a1d2 153e 7759 93bd 435f 45bf
00000150: 0dc0 5a3f d7f9 29bf 9b06 ee3e 1e9a 4cbf
00000160: 3b5c 923f 01b4 7abf 07ac b93e c3d9 413f
00000170: 28bc d2be e18e 8bbf 3ae7 743f 28f9 a43e
00000180: fb85 4a3f b248 153f 21b2 603f e306 6ebf
00000190: e85c 4abf 4c9d 48bf f0c5 2f3f 423d 69bf
000001a0: b1ce 223e 74bc 44bf 9437 72bf 3db1 1fbf
000001b0: dca4 02bf 0d46 49bf 35c7 433f d272 05bf
000001c0: 5ecb 37bc 0ea0 283f 1ac9 5c3f 7253 213e
000001d0: d942 763f 0aa3 8ebf 417f 4ebf 578a 5abf
000001e0: 2594 0fbf 42c0 253f 6f69 e7be 0537 2ebf
000001f0: b3f6 61bf abf8 32bf 4887 3cbf 337a 5c3f
00000200: 0d47 413f eefa 17bf 1270 1bbf bcba 72bf
00000210: ba4e 54bf e575 8c3e 29dd 173f e802 91bf
00000220: cd28 103f f292 363f 099d b5be ea00 04be
00000230: d199 79bf f544 4b3f 2839 6b3f 192c 463f
00000240: 2985 d13e 30d1 063f 905a 40bf 3ee0 0bbf
00000250: 1671 52bf fe28 b23e c2fa a93e b9fe 453f
00000260: 894c 7d3f bd7a 3bbf 1cb5 20bf 29e3 adbe
00000270: 26b5 e2be b60c 4b3f 3e94 fb3d 9e96 1fbf
00000280: febc 583f 9221 5cbf 3a7e ca3e f82e dd3e
00000290: 00bc 1c3f f884 133f dcaa 45be 94f8 11bf
000002a0: 18b3 11bf f98a f13e ca6c 413f 8b84 c03e
000002b0: 48ee 7bbf 387f 1ebf 0dfd 433f c587 fbbe
000002c0: bc0d 3cbf 23a9 65bf cf4a 0f3f bed4 8fbe
000002d0: a801 bcbd c6ce 4cbf acac 20bf 3f65 6f3f
000002e0: ef68 01bf a4bb 013f 2da0 933d c05d 5a3f
000002f0: 1543 a23e 25c0 74bd cba3 58bf 7459 5c3f
00000300: f6bf 7fbf b08d 523f a3e4 353f 99e3 37bf
00000310: f221 52bf 3f50 3b3f d79e 2f3f d59e 20bf
00000320: 10b2 1b3f e06b 0f3f 4811 253f 0e54 5fbe
00000330: 9e54 57bf 57ba 0cbf 510a 543f c53f 3a3f
00000340: e059 34be 2155 83bf 82a8 323f dd19 4f3f
00000350: f68d 4e3f 1d5a f13e 469b cfbe f8ab 48bf
00000360: 1ed6 3dbf 7e86 24bf e74e 303f 1d2c f13e
00000370: 2e60 13bf 8adb 833f ebe9 47bf 0bbb 08bf
00000380: f154 2e3f e21b 3dbf 371e 30bf 9114 13bf
00000390: ebfc 133f 4be4 5b3f f19e 02bf ad47 a63e
000003a0: 3eb9 2c3f f58e 6bbf e3d2 c7bd ffaf e63e
000003b0: 61f0 3fbf 5c0a 263f 601a 54bf 2534 6a3f
000003c0: 827a ef3e b731 13bf 8ac9 1abf 810e 6b3f
000003d0: 95f5 493f 9931 283f e91b 2a3f eff2 3b3f
000003e0: 47a1 21bf 64d0 113f d46f acbd 6f0f 23bf
000003f0: 75f3 373f 799a d83e d7c2 343f 0186 36bf
-0.68474966 0.6438703 -1.062077 -1.0412924 0.26230007 0.5552031 -0.03999209 -0.65400153
-0.302988 0.7774535 0.85009885 0.7011549 0.33550984 0.93726575 0.49944273 -0.9336649
0.81870365 0.6649133 0.4325898 -0.6669478 -0.31982508 0.7115236 -0.5783159 0.6439933
0.46108353 -0.61377245 0.8656129 -0.39562702 -0.7581293 -0.6524876 0.73782694 0.8379504
-0.6190018 -0.73819715 0.6206274 0.61618465 0.65923595 -0.5681083 -0.59042513 0.76806366
-0.64474744 -1.1609032 -0.7357576 -0.79867846 -0.15853433 -0.19902599 0.6404691 -1.0221244
0.73425 -0.3613597 -0.3729514 -1.0551909 0.11734702 0.76350003 -0.9364944 0.74440396
-0.9744405 0.61860794 0.5312783 0.23684202 0.55844074 0.4026071 -0.79742837 -0.7527771
-0.89525366 -0.75132185 0.69649947 0.6487163 -0.856184 0.73968935 -0.5619022 -0.3880993
0.6405164 0.4306731 -0.30930212 0.72741836 0.57739156 -0.35290092 -0.67088 0.5923943
-0.6095359 0.1463113 -0.071947984 -0.7709848 0.85449296 -0.6639685 0.46489415 -0.79922664
1.1434397 -0.97930914 0.3626406 0.75722903 -0.41159177 -1.0902978 0.95665324 0.3222134
0.7911069 0.5831405 0.87771803 -0.9297926 -0.79048014 -0.78365016 0.68661404 -0.91109097
0.15899159 -0.76850057 -0.94616055 -0.6237982 -0.51032805 -0.78622514 0.7647584 -0.52128327
-0.01121792 0.65869224 0.86244357 0.15754488 0.9619575 -1.1143506 -0.80662924 -0.8536734
-0.56085426 0.6474649 -0.45197627 -0.68052703 -0.8826706 -0.6991069 -0.7364392 0.8612396
0.7549904 -0.59367263 -0.6071788 -0.94816184 -0.8293263 0.27433696 0.5932184 -1.1329012
0.5631226 0.7131797 -0.3547137 -0.12890974 -0.9750033 0.79402095 0.9188409 0.7741104
0.40921906 0.52662945 -0.7513819 -0.5463904 -0.82203805 0.347969 0.33199126 0.773418
0.9894491 -0.7323416 -0.6277635 -0.33962372 -0.4427883 0.7931627 0.12284134 -0.623392
0.8466338 -0.85988724 0.39549428 0.43199897 0.61224365 0.5762477 -0.19303459 -0.57019925
-0.569139 0.4717634 0.75556624 0.37601122 -0.98410463 -0.6191287 0.76558 -0.4912702
-0.73458457 -0.8971121 0.55973524 -0.28091997 -0.091800034 -0.8000301 -0.62763476 0.93513864
-0.5055074 0.5067694 0.072082855 0.852993 0.31691805 -0.059753556 -0.8462493 0.86073995
-0.99902284 0.8224745 0.71051997 -0.7183166 -0.82083046 0.7316932 0.68601745 -0.6274236
0.60818577 0.5602398 0.64479494 -0.21809408 -0.8411349 -0.5497183 0.8282824 0.72753555
-0.1761241 -1.0260354 0.6978837 0.8089884 0.80685365 0.47139063 -0.40548152 -0.78387403
-0.7415484 -0.6426772 0.68870395 0.47103968 -0.57568634 1.0301373 -0.78091305 -0.53410405
0.6809836 -0.7387067 -0.68796104 -0.57453257 0.578078 0.8589522 -0.51023775 0.3247656
0.6747016 -0.9201501 -0.0975702 0.4505615 -0.74976164 0.6485956 -0.82852745 0.91485816
0.46773154 -0.57497734 -0.60463774 0.91819006 0.78890353 0.6570068 0.6644884 0.7341756
-0.63136715 0.56958604 -0.08419767 -0.63695425 0.7185586 0.42305353 0.706098 -0.71298224

fc2.bias f4 [20]
00000000: 8288 90be 9819 fc3d 63d4 803d 83bd 71bd
00000010: 56c6 173e e154 653b bc14 8e3d b098 9f3d
00000020: ae2c 2a3c b154 5cbc 1421 dd3d 2db3 9a3d
00000030: 2b10 f3bd ae31 d4bd e6c1 c3bd 88b0 33bd
00000040: efef 2c3e 28c2 983d c1da da3d 96e5 e7bd
-0.28229147 0.12309569 0.062905096 -0.059018623 0.14821753 0.0034993219 0.069375485 0.07792795
0.010386629 -0.013447926 0.10797325 0.07553706 -0.11868318 -0.10361038 -0.095584676 -0.043869525
0.16888402 0.07458907 0.10686255 -0.11323087
