model.pth (torch, 23699 bytes, 4 tensors)

fc1.weight f4 [20, 256]
00000000: 858c 833b 0ba2 443c 552c 9ebc 51d0 193e
00000010: d1dd 9cbd cc16 2abd 5c5b 973d c594 25bd
00000020: 9311 913d 0550 23bd 63cd 7f3c 529b 883d
00000030: 195b e3bb 23d4 84bd 088a 6cbd 91f0 1abe
00000040: 5112 fc3b f577 d5bd 91b0 92bd a5a3 cb3b
00000050: a253 9f3d 66ff 0c3e a84f be3b f23b 95bd
00000060: 429e 4fbc 4c81 a9bd 65f3 89bd 58af 223d
00000070: 3a4b 1b3d 9fae f43d 7213 a93c 9724 31bd
00000080: 7d41 d7bc e024 ad3c 6b10 c3bc 8a4d 2f3c
00000090: f1f4 c9bd 318d 07bb b9cd 643c a519 573e
000000a0: 85e4 3d3c e936 02be e643 debd 6e7f 97bb
000000b0: 5471 aebb 48e4 233c a624 833c 846a 59bd
000000c0: c787 94bd ae5d afbc 8bc1 9e3d bd77 003e
000000d0: 460f c03b 43d2 6e3d 3b11 65bd 3883 2cbd
000000e0: 2103 a0bd f06c e5bc b9c1 96bc 12de 113e
000000f0: 5faf 973d 2269 173a e4eb eb3c 51d2 2d3d
00000100: fe8d f53c 68fc 93bd 2d98 c43d 59f8 75bd
00000110: e6e5 d9bd a68e 353b d947 04bd 54ec 6dbd
00000120: abb4 0f3e 426b 123e 3564 74bd 8885 c33d
00000130: faa6 293e ff38 de3b ed73 113d 575c bcbd
00000140: e557 ca3b 3790 1d3b cd3d 80bd 3273 be3d
00000150: 2334 b2bd 1b2a a3bd dd8f fdba a8db 563d
00000160: 0882 65bd abfc 72bd e81e b93c f49a bebd
00000170: 21e8 1e3d 5c47 873c f836 143c 79d5 69bd
00000180: c97e 4a3d 9136 1d3d feef 113e 1549 00bc
00000190: 7cd1 1cbe 673d 93bc ec0b d5bd 42e0 e63a
000001a0: 705e 47bd cf7b cdbc c364 39bd d153 20bd
000001b0: 187f 37bd ee5a 063e 6c04 9ebd 20ea 1ebc
000001c0: 53e5 91bd 25b8 8ebc b36e 9c3d 7e53 1f3e
000001d0: 9f73 063e 9b6c 513d e047 b83d 197a 1bbd
000001e0: 8377 8abd 5449 a4bc f902 b3bd e835 5d3c
000001f0: 26fe 26bc 9a46 c3bd 337c a63d 270a f8b9
00000200: 1752 c8bd 382e 4f3e 94e9 c83d 3f99 88bd
00000210: 9b67 f33c 2ef4 50be 4460 16be a9df b23d
00000220: 6568 6d3a 7eb3 ad3b cbb2 54bd b248 e43d
00000230: 7ed4 003b 8c13 81bd c1d5 67bc b822 d2ba
00000240: ffda 223c 6539 d7bd ba11 6dbd 5b1a bc3c
00000250: 12c5 80bc a403 e43c 86f0 173d e06c b0bd
00000260: 6ad0 8ebd 49bb 85bc 23f9 813d b850 493e
00000270: 5fec 59bd e125 9dbd 7dc1 56bd 9231 d53d
00000280: 1b9d 71bb 6099 21bd 1087 49bb 5b38 363d
00000290: af9f 05be 8351 103d 26b7 a33d 43de 71bd
000002a0: c89e 65bd 13a1 063e 242d 873b c35b 9bbc
000002b0: 60b6 b4bd 3e71 063e af5c 9c3c 57dd 63bd
000002c0: b85c 17bb 42c3 7fbd 2f05 c6bb e18f d53c
000002d0: 92ac 303e 2431 393d 1385 5b3d a3f2 7ebb
000002e0: 7617 a63d 9612 b1bd 2f51 d83d c6fa 183e
000002f0: 1341 42bd 40ef 58bd 150d 3bbd f09f ebbc
00000300: 7a22 fe3d d019 efbc 62ae ae3c 1096 57ba
00000310: 3a4e 8abd 5849 9dbd 0190 153e 5d97 61bc
00000320: 1b05 403e 489c f63c 0b30 613c d2be 383e
00000330: 3d27 84bd 897c e3bc d319 91bd 68ff c83d
00000340: fabd 3d3e 0578 6fbe 3bbc 79bc c3e6 6e3d
00000350: 2ca2 db3d 09fe 98bd 4998 79bd 1e21 31bd
00000360: ed5b 143e 7503 083c c6de 7ebd b0bd 433c
00000370: ba29 85bd c4ae c6bc 5fd6 823c cb42 17be
00000380: 514d 433d e50c cabc 3e50 10be b1fb 16be
00000390: 47a8 b43d f94d 1f3b 8f98 9c3d 30ba f53d
000003a0: 7a88 003e 1529 5d3e 6584 4abe 9113 09be
000003b0: e7d3 bcbd d653 91bd 84d2 c13c 901a 84bd
000003c0: 80ba 163e 7a43 eebd ff54 b1bc d2e7 3a3c
000003d0: ec7b bdbc bed5 60bc ea35 7f3e 58d3 05bd
000003e0: be19 9cbd 0508 f1bd bf28 373d 15e2 1dbd
000003f0: b127 0e3e 9af4 33bd d905 9b3c 5a71 c7bd
0.004014554 0.012001525 -0.019308249 0.15020873 -0.076594956 -0.041525647 0.07390472 -0.04042508
0.0708343 -0.039871234 0.015612933 0.0667025 -0.00693835 -0.06485774 -0.057748824 -0.15130831
0.007692613 -0.104232706 -0.071625836 0.0062145763 0.077796236 0.13769302 0.0058078356 -0.07286824
-0.012672009 -0.082766145 -0.06735877 0.039718002 0.03791354 0.11947369 0.020639155 -0.043247785
-0.026276344 0.021135747 -0.02381154 0.010699639 -0.09861172 -0.0020683522 0.013965064 0.21005876
0.011590128 -0.12716259 -0.10852794 -0.004623345 -0.0053235684 0.010003157 0.016008686 -0.053080097
-0.0725246 -0.021406975 0.07751759 0.12545677 0.0058611957 0.05830599 -0.055924635 -0.042117327
-0.07813097 -0.028006047 -0.018402921 0.1424487 0.07406496 0.0005775859 0.028799005 0.0424369
0.029974934 -0.07225877 0.09599338 -0.060051296 -0.10639553 0.0027703433 -0.03229508 -0.05808671
0.14033763 0.14298728 -0.059665877 0.095469534 0.16567603 0.006781697 0.035510946 -0.091973
0.0061750286 0.0024042258 -0.062617876 0.092993155 -0.087013505 -0.07967015 -0.0019345243 0.052455574
-0.05603221 -0.059322994 0.022597745 -0.09306899 0.038795594 0.016513519 0.009046309 -0.05708835
0.049437318 0.038382117 0.14251706 -0.007829924 -0.15314287 -0.017973615 -0.104026645 0.0017614441
-0.048674047 -0.02508345 -0.04526211 -0.039142434 -0.04479894 0.13120624 -0.07715687 -0.009699374
-0.07123818 -0.017421791 0.07638302 0.15559193 0.13130043 0.051128965 0.08998084 -0.03795824
-0.06761076 -0.020054497 -0.08740801 0.013501622 -0.01019243 -0.095349506 0.08129158 -0.0004730981
-0.097812824 0.20232475 0.098101765 -0.066698544 0.029712489 -0.20405647 -0.1468516 0.08734066
0.00090563885 0.005300938 -0.051928323 0.11146678 0.0019657905 -0.063025564 -0.014150084 -0.0016032076
0.009939908 -0.10508994 -0.057878233 0.022961786 -0.01571897 0.027833767 0.037094615 -0.08614516
-0.069733456 -0.016324656 0.06346347 0.19659698 -0.053203937 -0.076732405 -0.05243062 0.104098454
-0.0036867324 -0.03945291 -0.003075067 0.04448734 -0.13049196 0.035233986 0.07993917 -0.059049856
-0.05605963 0.13147382 0.004125254 -0.018964654 -0.08823848 0.13129136 0.019087164 -0.055631008
-0.0023096036 -0.06244207 -0.0060430984 0.026069583 0.1725333 0.04521288 0.053593706 -0.0038901947
0.081099436 -0.08646123 0.105623595 0.14939412 -0.04742534 -0.05296254 -0.045666773 -0.028762788
0.1240892 -0.029187113 0.021323387 -0.000822396 -0.06753202 -0.07680005 0.14605714 -0.013768998
0.18751948 0.030103818 0.0137443645 0.18041542 -0.064527966 -0.027769344 -0.07085004 0.0981434
0.18529502 -0.23385628 -0.015242632 0.05832554 0.10724291 -0.07470328 -0.060936246 -0.043244474
0.14488192 0.0083016055 -0.062224172 0.0119470805 -0.06502099 -0.024253257 0.01597136 -0.14771573
0.047681157 -0.024664352 -0.1409311 -0.1474445 0.08821159 0.002430795 0.07646286 0.11998403
0.12552062 0.21597703 -0.19777067 -0.1338637 -0.09220105 -0.070960686 0.023659952 -0.06450379
0.14719582 -0.11633964 -0.021646975 0.011407809 -0.02313038 -0.013722835 0.2492291 -0.032672256
-0.076220974 -0.11769108 0.044716593 -0.038545687 0.13882329 -0.043934442 0.018923687 -0.09738417

fc1.bias f4 [20]
00000000: ae48 8d3d fad0 593d 7167 5f3e a76a d03c
00000010: 4338 0d3e ea6c 8abd 522d f7bd e869 16be
00000020: a5e6 f83d 8971 753e 13fb 87be e6f4 a23c
00000030: b091 23be 0c88 413e c40d 8a3d 97c4 973d
00000040: 437f c43d a754 5abd 7591 fc3d ab23 84bd
0.06898628 0.05317781 0.21816804 0.02544148 0.13790993 -0.06759055 -0.12069191 -0.14688838
0.12153367 0.23969091 -0.26558742 0.019892167 -0.15973544 0.18899554 0.06740907 0.074105434
0.09594586 -0.053303387 0.12332431 -0.064521156

fc2.weight f4 [20, 20]
00000000: a5cb e4be 4406 85be 997b 1abf c1d9 42be
00000010: b445 24bf f428 203f ac94 163f 5ff6 12bf
00000020: a21e 193f 2dd1 17be 920b 743e 8925 ca3e
00000030: 9565 f43e ec6e c7be 723e bd3e 2b09 f13e
00000040: ec74 06bf 1c07 163e a9ba f73e be60 2e3f
00000050: 09b8 e13e 1edb 113f f325 dd3e ce72 f83e
00000060: 0ea4 0bbf ab72 0cbf 03ca ed3e 984b b3be
00000070: bb96 8c3e 9619 8b3e f8df adbe e788 d4be
00000080: e8a0 113f df2b 543e 3f79 1bbf 2358 e73e
00000090: 11c7 27bf 7083 1c3f 255a 003f 6359 57be
000000a0: 75a8 d03e 3c43 af3e 6b73 ec3e a621 35bf
000000b0: f590 0ebf 8637 1b3f 190a 123f 495e 203f
000000c0: d09f 923e 1726 8ebd 8676 1c3f 13ab 26bf
000000d0: d190 a1be 09c1 083f a75c f73e 53be 9cbe
000000e0: 37be f83e 0346 40be 4155 133f 9c90 a4be
000000f0: e90f f1be 8625 4c3e a93b 0c3f ea75 ffbe
00000100: d9d7 b73e 7e24 f73e 5954 fdbe bbe4 fb3e
00000110: e130 d6be 1cee d4be 8688 46be ed0d b8be
00000120: 5086 42be 7619 1ebf dce9 3ebf e751 133f
00000130: ae8b c13e e667 fcbd 80b1 eebe c84f d8be
00000140: 6e5f 93be 3a77 03bf 1fb5 8c3e 57a3 293f
00000150: e4ef 7f3d cbdb 7c3e 7bae 263f b6e1 16bf
00000160: 38e7 86be b6ab fbbe 483d 553f aeab 27bf
00000170: f831 b6be 1a6d 363f 5cbd 313f de3b cd3d
00000180: 7e63 663e 6d86 94be 543f 373e 3b7c 703e
00000190: 39bc 29bf 9e94 f1be 7086 fd3e 3097 c33e
000001a0: 0297 583e adb5 08bf ffc2 173f c976 16be
000001b0: 3fb1 35be a897 9f3e 3d66 afbe e596 1fbf
000001c0: 0a7a e6be b625 903e 3a02 f9be 753c 073f
000001d0: 25c2 d6be 870e e1be 59a5 22bf d432 0c3f
000001e0: 0356 283c 5a38 1a3f 815d 39bf 115e 143d
000001f0: 0b8d 0b3f 0742 acbe c0e2 383e 3e89 0abf
00000200: ed0f fc3e 37f1 6c3e d2f4 d6be dcf8 3a3f
00000210: f40e 2bbf 6b5c 1d3f 3c52 11bf c16b 073f
00000220: 0b51 ab3e 403c 39be 3bce c0bb 6e7e cfbe
00000230: 1856 c73e 77e7 13bf 220f ec3e d7f5 003e
00000240: ee60 173f 084d 073f 42ad e0be 342f 163e
00000250: 77ce 4a3f 4619 2abf 232f 18bf 383e 313e
00000260: af7f fbbe 3a6b 92be f024 1f3e 1bfb 07bf
00000270: 03de 5ebe e052 0c3f 47f8 743e 1ee5 1a3f
00000280: 024f dd3e 3350 f5be e407 01bf e295 fc3e
00000290: ee23 0f3e 472d ab3d 94b2 e0be 2d69 9dbe
000002a0: 8db7 4fbf b31c dbbe 344e 163f a1e0 023f
000002b0: 7f0e 10bf 24c3 68be 348b 103f 3097 d5be
000002c0: bca0 04bd 9e92 b23e c411 32bf 403c 8f3e
000002d0: aaa7 0d3f 86dd e23e d081 21bc 265a a0be
000002e0: 11c1 f53e a889 13bf ed39 103f e2b5 9d3e
000002f0: 16e7 b63e e3e1 13bf 9bc0 0f3f 86b7 fd3e
00000300: d54a 0f3f 306e 173e a15a a0be caba e9be
00000310: 3965 efbe cee7 c0be 8c65 d5be ad3e 82be
00000320: a3d1 17bf 2b8a 3e3f 1b54 0bbf ad0d cabe
00000330: bc41 1a3f 8626 b2be 9876 cfbe 846f c73e
00000340: d426 b93e 83e4 2c3f c2a0 63bd 0ebd a33e
00000350: 9307 b0be 6f7d 08bf 6107 81be 7e08 f8be
00000360: 4dad 01bf e48e d6be 6762 1dbf 207a bc3e
00000370: 58ef e3be 1bb4 1f3f d6ea f33e 8686 843e
00000380: f266 d93e 99a0 133d 2717 05bf a896 15bf
00000390: 2ac6 de3e 78fd 02bf 30e2 e73e 5e1c e23e
000003a0: fb7f 003e 5cf5 2fbf 5102 fa3e 83b4 c43e
000003b0: 5ffc 0a3f 0f1b 133f 4a62 fe3e 14a4 15bf
000003c0: 4423 e9be acf3 1cbf 490d 15bf c553 0a3f
000003d0: 729e a53e ec17 aa3e f508 0bbf ccb6 b63e
000003e0: a208 03bf dec7 e6be 07d4 82be 11a7 863e
000003f0: 19bf 103f 0c1c 013f c20b 11bf 32bd af3e
-0.44686618 -0.25981343 -0.60344845 -0.19028379 -0.6416886 0.6256249 0.58820605 -0.5740718
0.59812367 -0.14825888 0.23832539 0.39481762 0.4773375 -0.38951814 0.36961704 0.47077307
-0.5252216 0.1465115 0.48384598 0.68116367 0.4408572 0.5697497 0.43193015 0.4852509
-0.545472 -0.5486247 0.46443185 -0.3501861 0.27458748 0.27167958 -0.33959937 -0.41510698
0.5688615 0.2071986 -0.6073188 0.4518443 -0.65538126 0.6113806 0.5013755 -0.21030192
0.40753523 0.34230983 0.46181807 -0.7075447 -0.55689937 0.606316 0.5704666 0.6264387
0.28637552 -0.06940859 0.6111835 -0.6510479 -0.315558 0.5341955 0.48312876 -0.30613956
0.48582622 -0.18776707 0.5755196 -0.32141578 -0.4708245 0.19936189 0.54778534 -0.4989465
0.35906866 0.4827003 -0.49478415 0.49197945 -0.41834167 -0.41587913 -0.19388017 -0.35948125
-0.18996549 -0.617576 -0.7457559 0.5754685 0.3780188 -0.123245046 -0.46619797 -0.42248368
-0.28783745 -0.513538 0.27481934 0.6626486 0.062484637 0.2469322 0.65109986 -0.5893816
-0.2634828 -0.49154443 0.8329663 -0.6549634 -0.35584998 0.71260226 0.69429564 0.100211844
0.22498891 -0.2900881 0.17895252 0.2348489 -0.6630283 -0.47183698 0.4951663 0.38201284
0.21151355 -0.53402215 0.59281915 -0.1469375 -0.17743395 0.31170392 -0.3425769 -0.6233962
-0.45014983 0.2815377 -0.4863451 0.52826625 -0.41944996 -0.43956396 -0.6353355 0.5476506
0.010274413 0.60242236 -0.724083 0.03622252 0.5451209 -0.33644125 0.18055248 -0.54115665
0.492309 0.23138891 -0.41983658 0.7303598 -0.6681969 0.61469144 -0.56766105 0.52898794
0.33460268 -0.1808939 -0.0058839596 -0.40526146 0.38932872 -0.5777506 0.46105295 0.1259378
0.5913228 0.52851915 -0.43882185 0.14666444 0.7922129 -0.66444814 -0.59446925 0.17308891
-0.49120852 -0.28597432 0.15541434 -0.5311753 -0.21764378 0.5481396 0.23922835 0.60505855
0.4322434 -0.4791275 -0.50402665 0.49333102 0.1397855 0.08358245 -0.43886244 -0.30744305
-0.8113945 -0.42795333 0.5871308 0.51124007 -0.5627212 -0.2273069 0.5646241 -0.4171691
-0.03237985 0.34877485 -0.6955836 0.27975655 0.5533396 0.44309634 -0.00985761 -0.31318778
0.4799886 -0.5763192 0.5633839 0.30802828 0.3572318 -0.5776655 0.5615327 0.4955408
0.5597356 0.14788127 -0.31319144 -0.4565032 -0.46756914 -0.37676853 -0.41679037 -0.25438443
-0.59304255 0.7442958 -0.5442521 -0.3946356 0.6025655 -0.34795016 -0.40520167 0.38952267
0.36162436 0.6753618 -0.055573232 0.31980175 -0.3438078 -0.53316396 -0.25200942 -0.4844398
-0.5065506 -0.41905892 -0.61478275 0.36811924 -0.44518542 0.62384194 0.47640103 0.25883883
0.42461354 0.03604183 -0.5198845 -0.5843301 0.43510562 -0.5116801 0.45289755 0.44162267
0.1254882 -0.68733764 0.48829892 0.3841897 0.5429134 0.57463163 0.49684364 -0.5845349
-0.45534718 -0.61309314 -0.58223397 0.5403407 0.32347447 0.33221376 -0.5431054 0.35686338
-0.5118505 -0.45074362 -0.2555239 0.26299337 0.5654159 0.5043342 -0.56658566 0.34324032

fc2.bias f4 [20]
00000000: c806 d0bd 3fab c9bd 6d68 ffbc 409e 2cbe
00000010: bf7c 8cbe 9cf4 803e 0930 063e b8b1 783d
00000020: 04b5 223d 6165 bebd 0b4a 19bd 0315 d5bd
00000030: c24f d33d 7b0f b9be 2d75 0c3e b20f 063c
00000040: ce84 1e3e 8e32 b13d 3b2b d3bd b360 edbd
-0.101575434 -0.09847116 -0.031177724 -0.16857243 -0.27438924 0.25186622 0.13104261 0.06071636
0.03972341 -0.0929668 -0.03742413 -0.10404398 0.10317947 -0.36144623 0.13716574 0.008182453
0.15480348 0.08652221 -0.1031098 -0.115907095
